text_model.pt (torch, 5171 bytes, 2 tensors)

weight f4 [2, 512]
00000000: 407d df3c 9e35 36bc f207 79bc b453 2f3d
00000010: 36f0 e3bb b5ea 49bc ca77 abbc 3e2e 353d
00000020: cf53 c5bc a2dc abbc 7fe4 393c 5f3e 1cbd
00000030: 930f 1f3d a81d 3dbd 60aa fd3c 7c2d 14bd
00000040: 8f80 1dbd c1f3 4c3d e9f1 303d 0294 60bd
00000050: dca0 0bbd 2319 6d3d 8c59 0ebb 3ceb 6d3d
00000060: dc21 b1ba 99e4 a9bc 109f b53b 544b 99bc
00000070: bc21 2bbc 8d7f dcbc 3236 943c d1d5 393d
00000080: c8c7 f03b 4a0f 4fbd 4914 bfbc b8e6 d43b
00000090: 6155 96bc d921 203d 2b5b e63c 215d 2b3d
000000a0: 2bcd f23c 7275 c5bc 2cdc 1b3d fd7a 4abb
000000b0: 6c04 b6bc 0c0d d9bc cbf3 aabc f383 7d3b
000000c0: 2c91 1a3b 3fe6 22bd a64a 793d 6f6f 2bbd
000000d0: 51a4 a9bc 7391 dbbc d2f3 35bb f7fb ed3c
000000e0: 062d 613c 9b0f a33c 9203 08bc b592 c03c
000000f0: f1ef 69bc 3d56 68bd ba0c 2abc b7ab 543d
00000100: f30d 843c 0616 653d 6c3f 8e3c 8ed7 d2bb
00000110: ac74 d73c 61ea 10bd 72c2 44bd 6323 a83c
00000120: 7a6c b7bb 582b d4bc e7a0 223d 76b7 e53b
00000130: 4908 d03c 4972 e1bc 586e cebc 8a6c c5bc
00000140: e79e 66b9 ecab 2d3b 8c3e 743c 8f97 623b
00000150: 2385 31bd faa7 95bc 050a 37bc 9e46 823c
00000160: 940e 60bc 2b61 2dbc f228 23bd b53f 803d
00000170: 36f9 9d3c b6cb 433d 3518 1f3c cbd7 323d
00000180: 4ba5 1ebd 2cc9 94bb 6400 92bd c112 0abd
00000190: a793 b23c de18 4f3d 89bf 98bb c510 ac3c
000001a0: 1531 5d3d 5175 ea39 1003 efbc f852 02bc
000001b0: d2d2 aabc 0c72 7f3d 0c4f 693d 860d 0dbd
000001c0: 3737 103d 1433 413c 4b38 3a3d 7c4e 453c
000001d0: 3df0 15bd b1f2 babc 9fa9 313d 2545 063d
000001e0: 5d4a 31bc 89a0 4dbc 09d8 1e3d c433 40bd
000001f0: 8054 34bd fcb9 8bbc 91b5 573d 7e9c 123c
00000200: 7377 8939 5729 9cbc 6d42 03bd b470 c33b
00000210: e67b 533d a382 3d3d e222 ccbb 5284 5bbd
00000220: 8a30 423c a3fd 35bc 67f1 16bd 1288 433d
00000230: f4c7 963b 547e e73c e66a e6bc 8743 163d
00000240: c6d5 16bc 1441 85bc e733 4bba a72e 013d
00000250: e623 99bc 9a05 44bb 88e0 4bbd 0b63 463d
00000260: fc0e 363c 35a8 cc3c fee2 afbc 9bd3 f53c
00000270: a0ad 5f3c 29f5 76bc d244 123d 88a5 553c
00000280: 3c4a 563d 9267 583d a202 823b 20d0 1fbc
00000290: be83 e43c 4e2a 48bc 6743 033d e0c5 9d3c
000002a0: aa4c 243d 8e66 843c 6322 bfbc 7f2e 2bbc
000002b0: d74e 113c 05f2 89ba f627 3dbb 86c3 93bc
000002c0: 856e db3c 8238 173b 8c70 043d 6f9b e4bc
000002d0: a1aa 08bc 24a4 a0ba 8fab bcbc dc77 193c
000002e0: 54c6 073d 75e2 413d da72 2f3d 210d a23c
000002f0: e1a0 0b3d e20f bb3c 6382 44bc f916 d73c
00000300: de9c 3b3c b0f0 473c e025 0bbd 1fa8 e5ba
00000310: 8c1d b43c 9a44 82bb 5fc5 02bc ccd9 9d3c
00000320: bb7a 84bb 0d86 c3bc 0c15 1ebc 3b0b 82bc
00000330: 7512 163d 12c0 f03c 7e01 033c 082c 913a
00000340: 4780 c03c 6d1d 243c b479 eb3c 8b33 16bd
00000350: 4444 01bd 186f 45bd 6cd7 81bc 1ece 2ebd
00000360: 6eb9 40bd 38e5 d2bb b933 68bd 10cf 3f3c
00000370: 4cb8 a8bc f301 45bd bb75 1cbc 25dc 4eba
00000380: 9c76 143d 33fd 723b 7366 dbba b21d 003c
00000390: 6728 47bb 70cb 6a3d f818 39bd 72bf 6ebc
000003a0: 6ca0 19bd 70c4 853d efd5 14bb 15dd b7bb
000003b0: 2f4c 383d c624 75bd 6c43 7aba 1c86 583d
000003c0: 6943 bb3c f46b cdbc 99b5 d63b db33 b3bc
000003d0: 4b3d 5d39 2f57 4dbd d0fc 72bc 656d e63c
000003e0: 46b7 c3bc a702 ae3c f6f6 733d d578 76bc
000003f0: 1326 7b3c 4fa8 05bd ca99 b9bc 92cb 00bb
0.027281404 -0.011121182 -0.015199648 0.042804435 -0.0069561256 -0.012324025 -0.020931143 0.044233553
-0.024087815 -0.02097923 0.011345982 -0.03814542 0.038833212 -0.04617086 0.03096503 -0.03617619
-0.03845268 0.05003715 0.043199454 -0.05482865 -0.034088954 0.0578853 -0.0021720855 0.058085665
-0.0013514119 -0.020738887 0.0055426434 -0.018712677 -0.010445055 -0.02691629 0.018092249 0.045369927
0.0073480345 -0.05055169 -0.023325102 0.0064972304 -0.018351259 0.03909478 0.028119644 0.04183686
0.029638847 -0.024103854 0.03805177 -0.003089606 -0.022218905 -0.026495479 -0.020868203 0.0038683384
0.0023585064 -0.03977036 0.060862206 -0.04185432 -0.020708235 -0.026802754 -0.0027763736 0.02905081
0.013743645 0.019904902 -0.0083016325 0.023507455 -0.014278398 -0.05672287 -0.010379011 0.051921573
0.016119933 0.055929206 0.017364226 -0.0064343875 0.02630075 -0.03537977 -0.048037 0.020524686
-0.005597648 -0.025899574 0.03970423 0.0070103956 0.025394576 -0.027520316 -0.0251991 -0.024099607
-0.00021993705 0.0026500179 0.01490749 0.00345752 -0.04333986 -0.018268574 -0.011171822 0.015902814
-0.013675351 -0.010582249 -0.03983397 0.06262151 0.019283872 0.047801696 0.009710361 0.043662827
-0.038731854 -0.004540583 -0.07128981 -0.03370929 0.021798922 0.050560825 -0.0046615046 0.02100409
0.054001886 0.00044719366 -0.029176265 -0.007954352 -0.02085248 0.062364623 0.05696015 -0.034436725
0.035208907 0.011791963 0.04546384 0.012042638 -0.036606062 -0.022820802 0.043374654 0.032780785
-0.010820952 -0.012550482 0.038780246 -0.046924368 -0.044025898 -0.017056458 0.05266339 0.008948443
0.00026219673 -0.019062681 -0.03204577 0.005964363 0.05163183 0.046267163 -0.0062297443 -0.053592987
0.011852393 -0.011107835 -0.036851313 0.04773719 0.004601473 0.02825848 -0.028127145 0.036685493
-0.009206241 -0.016266383 -0.00077515695 0.03153863 -0.018693876 -0.0029910565 -0.049774677 0.0484343
0.011111971 0.024982551 -0.021470543 0.030008128 0.013652235 -0.015073099 0.035710163 0.013039954
0.05231689 0.052833147 0.003967599 -0.009754211 0.02789485 -0.0122171175 0.0320467 0.019259393
0.040112175 0.016162183 -0.023331827 -0.010448097 0.008868895 -0.0010524398 -0.002886293 -0.018037569
0.026786098 0.0023074453 0.032333896 -0.027906148 -0.008341462 -0.0012255949 -0.023031024 0.009366956
0.033148125 0.047335107 0.04283414 0.019781651 0.034088973 0.022834722 -0.011993977 0.026256071
0.011450974 0.01220338 -0.033971667 -0.0017521417 0.021986745 -0.003975463 -0.007981627 0.019268893
-0.004042951 -0.023867631 -0.009648573 -0.015874496 0.036638696 0.029388461 0.007995961 0.0011075744
0.023498667 0.010016781 0.028744556 -0.03667025 -0.031559244 -0.04820165 -0.015849791 -0.042677037
-0.04705184 -0.0064360164 -0.05668995 0.011707082 -0.020595692 -0.048097562 -0.0095495535 -0.00078910805
0.036245927 0.0037077188 -0.0016738906 0.00781958 -0.0030389072 0.05732292 -0.045189828 -0.014572011
-0.037506506 0.06531608 -0.0022710522 -0.005611072 0.04499453 -0.059849523 -0.000954679 0.05286227
0.022859292 -0.02507589 0.00655241 -0.021875313 0.00021099036 -0.050131973 -0.014830783 0.028128335
-0.023891103 0.0212415 0.059561692 -0.015043457 0.015328902 -0.032631215 -0.02265634 -0.0019652587

bias f4 [2]
00000000: fe0a f23b 5b22 e3bc
0.0073865643 -0.027726343
